model_torch_pinns_1d/equidistant.model (torch, 1840 bytes, 3 tensors)

0.weight f4 [10, 1]
0	0x3f890bed	1.0706764
1	0x3f792b4e	0.973317
2	0x3f717c95	0.9433072
3	0x3f933600	1.1500854
4	0x3f871693	1.0553764
5	0x3f60e76c	0.8785312
6	0x3f4df6c2	0.8045465
7	0x3f6ea21a	0.932161
8	0x3f7b8368	0.98247385
9	0x3f8c2ea0	1.0951729

0.bias f4 [10]
0	0x3e68fb6e	0.22752163
1	0xbb974ab2	-0.0046170587
2	0xbf1a37db	-0.6024148
3	0xbf461c01	-0.7738648
4	0xbf8f7412	-1.1207297
5	0xc004dd66	-2.076013
6	0xc01591a7	-2.337015
7	0xc024fe3c	-2.5780172
8	0xc037c408	-2.8713398
9	0xc0433b3b	-3.0504901

2.weight f4 [1, 10]
0	0xc2094a14	-34.322342
1	0x428c5b82	70.17873
2	0xc2aa89d7	-85.26922
3	0x4202ddbd	32.71654
4	0x411396c8	9.224312
5	0x41ea6932	29.301365
6	0x427cf4a8	63.238922
7	0xc2ab8e1b	-85.77755
8	0xc1f771e5	-30.930613
9	0x4209ceb2	34.45185
