model_torch_pinns_1d/glorot_normal.model (torch, 1854 bytes, 3 tensors)

0.weight f4 [10, 1]
0.89870775 1.1426287 -0.6012315 0.90309846 0.35889405 0.94736993 0.002404729 -0.0999001
-0.13785818 -0.48329097
00000000: b611 663f a841 923f 4fea 19bf 7631 673f
00000010: f6c0 b73e d686 723f a898 1d3b 6c98 ccbd
00000020: b22a 0dbe ea71 f7be

0.bias f4 [10]
0.05370316 -0.023071125 -0.015844503 -0.06124629 0.025952768 -0.0038031924 -0.014312866 -0.011303783
0.075638615 0.017527623
00000000: d8f7 5b3d a8ff bcbc 55cc 81bc 64dd 7abd
00000010: e69a d43c fb3e 79bb 8380 6abc 8133 39bc
00000020: 6be8 9a3d 1796 8f3c

2.weight f4 [1, 10]
-3146.4717 -1238.0139 2245.9182 -3987.355 -5324.5117 8349.391 -83745.27 10725.866
-11545.025 -5927.561
00000000: 8ca7 44c5 72c0 9ac4 b15e 0c45 ae35 79c5
00000010: 1864 a6c5 9075 0246 a390 a3c7 7797 2746
00000020: 1a64 34c6 7d3c b9c5
