model_torch_pinns_1d/he_normal.model (torch, 1826 bytes, 3 tensors)

0.weight f4 [10, 1]
00000000: f1e3 063f 843e 0a3f 4ba0 113d b8a3 32be
00000010: e300 433f dac0 24be ea6b c7bd d867 393e
00000020: d7a7 a63d b113 eebd
0.5269156 0.5400164 0.035553258 -0.17445266 0.7617323 -0.16089192 -0.0973738 0.1810602
0.08137482 -0.116248496

0.bias f4 [10]
00000000: 0655 10bd caed 323d d1f6 4a3c 6c9f 2238
00000010: 51d8 17bd 5232 eabc ea38 b0bc 4dad ef3b
00000020: 6886 87bd a72f 7f39
-0.035237335 0.043683805 0.012387947 3.8772283e-05 -0.03707153 -0.028588448 -0.021511514 0.0073143602
-0.06617433 0.00024336447

2.weight f4 [1, 10]
00000000: 9333 d6c3 e5c2 15c3 b4c6 2047 6ad7 5ac6
00000010: cf47 2343 efbf 99c5 4430 99c6 871b e644
00000020: f998 8246 943c 8847
-428.40292 -149.7613 41158.703 -14005.854 163.2805 -4919.9917 -19608.133 1840.8602
16716.486 69753.16
